{"format": "layers-model", "generatedBy": "keras v2.4.0", "convertedBy": "TensorFlow.js Converter v2.8.2", "modelTopology": {"keras_version": "2.4.0", "backend": "tensorflow", "model_config": {"class_name": "Sequential", "config": {"name": "sequential_5", "layers": [{"class_name": "InputLayer", "config": {"batch_input_shape": [null], "dtype": "string", "sparse": false, "ragged": false, "name": "keras_layer_2_input"}}, {"class_name": "KerasLayer", "config": {"name": "keras_layer_2", "trainable": true, "batch_input_shape": [null], "dtype": "string", "handle": "https://tfhub.dev/google/nnlm-en-dim128-with-normalization/2"}}, {"class_name": "Dense", "config": {"name": "dense_10", "trainable": true, "dtype": "float32", "units": 16, "activation": "relu", "use_bias": true, "kernel_initializer": {"class_name": "GlorotUniform", "config": {"seed": null}}, "bias_initializer": {"class_name": "Zeros", "config": {}}, "kernel_regularizer": null, "bias_regularizer": null, "activity_regularizer": null, "kernel_constraint": null, "bias_constraint": null}}, {"class_name": "Dense", "config": {"name": "dense_11", "trainable": true, "dtype": "float32", "units": 1, "activation": "linear", "use_bias": true, "kernel_initializer": {"class_name": "GlorotUniform", "config": {"seed": null}}, "bias_initializer": {"class_name": "Zeros", "config": {}}, "kernel_regularizer": null, "bias_regularizer": null, "activity_regularizer": null, "kernel_constraint": null, "bias_constraint": null}}]}}, "training_config": {"loss": {"class_name": "BinaryCrossentropy", "config": {"reduction": "auto", "name": "binary_crossentropy", "from_logits": true, "label_smoothing": 0}}, "metrics": [[{"class_name": "BinaryAccuracy", "config": {"name": "accuracy", "dtype": "float32", "threshold": 0.0}}]], "weighted_metrics": null, "loss_weights": null, "optimizer_config": {"class_name": "Adam", "config": {"name": "Adam", "learning_rate": 0.0010000000474974513, "decay": 0.0, "beta_1": 0.8999999761581421, "beta_2": 0.9990000128746033, "epsilon": 1e-07, "amsgrad": false}}}}, "weightsManifest": [{"paths": ["group1-shard1of119.bin", "group1-shard2of119.bin", "group1-shard3of119.bin", "group1-shard4of119.bin", "group1-shard5of119.bin", "group1-shard6of119.bin", "group1-shard7of119.bin", "group1-shard8of119.bin", "group1-shard9of119.bin", "group1-shard10of119.bin", "group1-shard11of119.bin", "group1-shard12of119.bin", "group1-shard13of119.bin", "group1-shard14of119.bin", "group1-shard15of119.bin", "group1-shard16of119.bin", "group1-shard17of119.bin", "group1-shard18of119.bin", "group1-shard19of119.bin", "group1-shard20of119.bin", "group1-shard21of119.bin", "group1-shard22of119.bin", "group1-shard23of119.bin", "group1-shard24of119.bin", "group1-shard25of119.bin", "group1-shard26of119.bin", "group1-shard27of119.bin", "group1-shard28of119.bin", "group1-shard29of119.bin", "group1-shard30of119.bin", "group1-shard31of119.bin", "group1-shard32of119.bin", "group1-shard33of119.bin", "group1-shard34of119.bin", "group1-shard35of119.bin", "group1-shard36of119.bin", "group1-shard37of119.bin", "group1-shard38of119.bin", "group1-shard39of119.bin", "group1-shard40of119.bin", "group1-shard41of119.bin", "group1-shard42of119.bin", "group1-shard43of119.bin", "group1-shard44of119.bin", "group1-shard45of119.bin", "group1-shard46of119.bin", "group1-shard47of119.bin", "group1-shard48of119.bin", "group1-shard49of119.bin", "group1-shard50of119.bin", "group1-shard51of119.bin", "group1-shard52of119.bin", "group1-shard53of119.bin", "group1-shard54of119.bin", "group1-shard55of119.bin", "group1-shard56of119.bin", "group1-shard57of119.bin", "group1-shard58of119.bin", "group1-shard59of119.bin", "group1-shard60of119.bin", "group1-shard61of119.bin", "group1-shard62of119.bin", "group1-shard63of119.bin", "group1-shard64of119.bin", "group1-shard65of119.bin", "group1-shard66of119.bin", "group1-shard67of119.bin", "group1-shard68of119.bin", "group1-shard69of119.bin", "group1-shard70of119.bin", "group1-shard71of119.bin", "group1-shard72of119.bin", "group1-shard73of119.bin", "group1-shard74of119.bin", "group1-shard75of119.bin", "group1-shard76of119.bin", "group1-shard77of119.bin", "group1-shard78of119.bin", "group1-shard79of119.bin", "group1-shard80of119.bin", "group1-shard81of119.bin", "group1-shard82of119.bin", "group1-shard83of119.bin", "group1-shard84of119.bin", "group1-shard85of119.bin", "group1-shard86of119.bin", "group1-shard87of119.bin", "group1-shard88of119.bin", "group1-shard89of119.bin", "group1-shard90of119.bin", "group1-shard91of119.bin", "group1-shard92of119.bin", "group1-shard93of119.bin", "group1-shard94of119.bin", "group1-shard95of119.bin", "group1-shard96of119.bin", "group1-shard97of119.bin", "group1-shard98of119.bin", "group1-shard99of119.bin", "group1-shard100of119.bin", "group1-shard101of119.bin", "group1-shard102of119.bin", "group1-shard103of119.bin", "group1-shard104of119.bin", "group1-shard105of119.bin", "group1-shard106of119.bin", "group1-shard107of119.bin", "group1-shard108of119.bin", "group1-shard109of119.bin", "group1-shard110of119.bin", "group1-shard111of119.bin", "group1-shard112of119.bin", "group1-shard113of119.bin", "group1-shard114of119.bin", "group1-shard115of119.bin", "group1-shard116of119.bin", "group1-shard117of119.bin", "group1-shard118of119.bin", "group1-shard119of119.bin"], "weights": [{"name": "dense_10/kernel", "shape": [128, 16], "dtype": "float32"}, {"name": "dense_10/bias", "shape": [16], "dtype": "float32"}, {"name": "dense_11/kernel", "shape": [16, 1], "dtype": "float32"}, {"name": "dense_11/bias", "shape": [1], "dtype": "float32"}, {"name": "Variable", "shape": [973771, 128], "dtype": "float32"}]}]}